Results are saved in:  Results_5fold_testfixed_dinobloom-b_MixtureOfAggregators_separate_topk_topk2_localheadFalse_router_arch_mlp_seed38

Initialize datasets...
Found device:  1 x  cuda
Reading files from:  data_cross_val_8_classes/data_fold_1
Embedding dimension: 768
Initialize dataloaders...
Dataloaders are ready..
cAItomorph(model=MixtureOfAggregators(
  (experts): ModuleList(
    (0-1): 2 x TransformerExpert(
      (projection): Sequential(
        (0): Linear(in_features=768, out_features=512, bias=True)
        (1): ReLU()
      )
      (dropout): Dropout(p=0.1, inplace=False)
      (transformer): TransformerBlocks(
        (layers): ModuleList(
          (0-1): 2 x ModuleList(
            (0): PreNorm(
              (fn): Attention(
                (attend): Softmax(dim=-1)
                (to_qkv): Linear(in_features=512, out_features=1536, bias=False)
                (to_out): Sequential(
                  (0): Linear(in_features=512, out_features=512, bias=True)
                  (1): Dropout(p=0.1, inplace=False)
                )
              )
              (norm): LayerNorm((512,), eps=1e-05, elementwise_affine=True)
            )
            (1): PreNorm(
              (fn): FeedForward(
                (net): Sequential(
                  (0): Linear(in_features=512, out_features=1024, bias=True)
                  (1): GELU(approximate='none')
                  (2): Dropout(p=0.1, inplace=False)
                  (3): Linear(in_features=1024, out_features=512, bias=True)
                  (4): Dropout(p=0.1, inplace=False)
                )
              )
              (norm): LayerNorm((512,), eps=1e-05, elementwise_affine=True)
            )
          )
        )
      )
      (norm): LayerNorm((512,), eps=1e-05, elementwise_affine=True)
    )
  )
  (router_proj): Sequential(
    (0): Linear(in_features=768, out_features=512, bias=True)
    (1): ReLU()
  )
  (router_fc): Sequential(
    (0): Linear(in_features=512, out_features=256, bias=True)
    (1): ReLU()
    (2): Linear(in_features=256, out_features=2, bias=True)
  )
  (head): Sequential(
    (0): Linear(in_features=512, out_features=64, bias=True)
    (1): ReLU()
    (2): Linear(in_features=64, out_features=8, bias=True)
  )
))
Setup complete.

Using scheduler: ReduceLROnPlateau
Starting training
- ep: 1/150, loss: 1.861, acc: 0.275, balanced acc: 0.169,weighted_f1: 0.178, 17s, train
- ep: 1/150, loss: 1.644, acc: 0.398, balanced acc: 0.289,weighted_f1: 0.331, 2s, val
🔖  Saved new best model (metric=1.6442)
- ep: 2/150, loss: 1.496, acc: 0.484, balanced acc: 0.385,weighted_f1: 0.441, 17s, train
…
